…
Namespace(batch_size=32, data='Mydata', data_dir='data/Mydata', days=288, device='cuda:0', dims=32, dropout=0.3, epochs=200, expid=0, iden='', in_dim=1, in_len=12, learning_rate=0.001, nhid=32, normalization='batch', num_nodes=113, order=2, print_every=50, runs=1, save='save_models/Mydata', seq_length=12, weight_decay=0.0001)
start training...
input.shape
Python 3.6.13 |Anaconda, Inc.| (default, Mar 16 2021, 11:37:27) [MSC v.1916 64 bit (AMD64)]
Type 'copyright', 'credits' or 'license' for more information
IPython 7.16.1 -- An enhanced Interactive Python. Type '?' for help.
PyDev console: using IPython 7.16.1
Out[1]: torch.Size([32, 2, 113, 13])
adp.shape
Out[2]: torch.Size([32, 113, 113])
x.shape
Out[3]: torch.Size([32, 32, 113, 13])
self.filter_convs
Out[4]: 
ModuleList(
  (0): Conv2d(32, 32, kernel_size=(1, 2), stride=(1, 1))
  (1): Conv2d(32, 32, kernel_size=(1, 2), stride=(1, 1), dilation=(2, 2))
  (2): Conv2d(32, 32, kernel_size=(1, 2), stride=(1, 1))
  (3): Conv2d(32, 32, kernel_size=(1, 2), stride=(1, 1), dilation=(2, 2))
  (4): Conv2d(32, 32, kernel_size=(1, 2), stride=(1, 1))
  (5): Conv2d(32, 32, kernel_size=(1, 2), stride=(1, 1), dilation=(2, 2))
  (6): Conv2d(32, 32, kernel_size=(1, 2), stride=(1, 1))
  (7): Conv2d(32, 32, kernel_size=(1, 2), stride=(1, 1), dilation=(2, 2))
)
filter.shape
Out[5]: torch.Size([32, 32, 113, 12])
self.gate_convs
Out[6]: 
ModuleList(
  (0): Conv1d(32, 32, kernel_size=(1, 2), stride=(1,))
  (1): Conv1d(32, 32, kernel_size=(1, 2), stride=(1,), dilation=(2,))
  (2): Conv1d(32, 32, kernel_size=(1, 2), stride=(1,))
  (3): Conv1d(32, 32, kernel_size=(1, 2), stride=(1,), dilation=(2,))
  (4): Conv1d(32, 32, kernel_size=(1, 2), stride=(1,))
  (5): Conv1d(32, 32, kernel_size=(1, 2), stride=(1,), dilation=(2,))
  (6): Conv1d(32, 32, kernel_size=(1, 2), stride=(1,))
  (7): Conv1d(32, 32, kernel_size=(1, 2), stride=(1,), dilation=(2,))
)
x.shape
Out[7]: torch.Size([32, 32, 113, 12])
gate.shape
Out[8]: torch.Size([32, 32, 113, 12])
13->12
  File "<ipython-input-9-1ab8931522e0>", line 1
    13->12
       ^
SyntaxError: invalid syntax
self.skip_convs
Out[10]: 
ModuleList(
  (0): Conv1d(32, 8, kernel_size=(1, 1), stride=(1,))
  (1): Conv1d(32, 8, kernel_size=(1, 1), stride=(1,))
  (2): Conv1d(32, 8, kernel_size=(1, 1), stride=(1,))
  (3): Conv1d(32, 8, kernel_size=(1, 1), stride=(1,))
  (4): Conv1d(32, 8, kernel_size=(1, 1), stride=(1,))
  (5): Conv1d(32, 8, kernel_size=(1, 1), stride=(1,))
  (6): Conv1d(32, 8, kernel_size=(1, 1), stride=(1,))
  (7): Conv1d(32, 8, kernel_size=(1, 1), stride=(1,))
)
skip.shape
Out[11]: torch.Size([32, 96, 113, 1])
self.gconv
Out[12]: 
ModuleList(
  (0): gcn(
    (nconv): nconv()
    (mlp): linear(
      (mlp): Conv2d(96, 32, kernel_size=(1, 1), stride=(1, 1))
    )
  )
  (1): gcn(
    (nconv): nconv()
    (mlp): linear(
      (mlp): Conv2d(96, 32, kernel_size=(1, 1), stride=(1, 1))
    )
  )
  (2): gcn(
    (nconv): nconv()
    (mlp): linear(
      (mlp): Conv2d(96, 32, kernel_size=(1, 1), stride=(1, 1))
    )
  )
  (3): gcn(
    (nconv): nconv()
    (mlp): linear(
      (mlp): Conv2d(96, 32, kernel_size=(1, 1), stride=(1, 1))
    )
  )
  (4): gcn(
    (nconv): nconv()
    (mlp): linear(
      (mlp): Conv2d(96, 32, kernel_size=(1, 1), stride=(1, 1))
    )
  )
  (5): gcn(
    (nconv): nconv()
    (mlp): linear(
      (mlp): Conv2d(96, 32, kernel_size=(1, 1), stride=(1, 1))
    )
  )
  (6): gcn(
    (nconv): nconv()
    (mlp): linear(
      (mlp): Conv2d(96, 32, kernel_size=(1, 1), stride=(1, 1))
    )
  )
  (7): gcn(
    (nconv): nconv()
    (mlp): linear(
      (mlp): Conv2d(96, 32, kernel_size=(1, 1), stride=(1, 1))
    )
  )
)
x.shape
Out[13]: torch.Size([32, 32, 113, 12])
self.nconv
Out[14]: nconv()
x1.shape
Out[15]: torch.Size([32, 32, 113, 12])
x2.shape
Out[16]: torch.Size([32, 32, 113, 12])
self.mlp
Out[17]: 
linear(
  (mlp): Conv2d(96, 32, kernel_size=(1, 1), stride=(1, 1))
)
x.shape
Out[18]: torch.Size([32, 32, 113, 12])
self.gconv_a2p
Out[19]: 
ModuleList(
  (0): gcn(
    (nconv): nconv()
    (mlp): linear(
      (mlp): Conv2d(96, 32, kernel_size=(1, 1), stride=(1, 1))
    )
  )
  (1): gcn(
    (nconv): nconv()
    (mlp): linear(
      (mlp): Conv2d(96, 32, kernel_size=(1, 1), stride=(1, 1))
    )
  )
  (2): gcn(
    (nconv): nconv()
    (mlp): linear(
      (mlp): Conv2d(96, 32, kernel_size=(1, 1), stride=(1, 1))
    )
  )
  (3): gcn(
    (nconv): nconv()
    (mlp): linear(
      (mlp): Conv2d(96, 32, kernel_size=(1, 1), stride=(1, 1))
    )
  )
  (4): gcn(
    (nconv): nconv()
    (mlp): linear(
      (mlp): Conv2d(96, 32, kernel_size=(1, 1), stride=(1, 1))
    )
  )
  (5): gcn(
    (nconv): nconv()
    (mlp): linear(
      (mlp): Conv2d(96, 32, kernel_size=(1, 1), stride=(1, 1))
    )
  )
  (6): gcn(
    (nconv): nconv()
    (mlp): linear(
      (mlp): Conv2d(96, 32, kernel_size=(1, 1), stride=(1, 1))
    )
  )
  (7): gcn(
    (nconv): nconv()
    (mlp): linear(
      (mlp): Conv2d(96, 32, kernel_size=(1, 1), stride=(1, 1))
    )
  )
)
x_a2p.shape
Out[20]: torch.Size([32, 32, 113, 12])
x.shape
Out[21]: torch.Size([32, 32, 113, 12])
self.normal
Out[22]: 
ModuleList(
  (0): BatchNorm2d(32, eps=1e-05, momentum=0.1, affine=True, track_running_stats=True)
  (1): BatchNorm2d(32, eps=1e-05, momentum=0.1, affine=True, track_running_stats=True)
  (2): BatchNorm2d(32, eps=1e-05, momentum=0.1, affine=True, track_running_stats=True)
  (3): BatchNorm2d(32, eps=1e-05, momentum=0.1, affine=True, track_running_stats=True)
  (4): BatchNorm2d(32, eps=1e-05, momentum=0.1, affine=True, track_running_stats=True)
  (5): BatchNorm2d(32, eps=1e-05, momentum=0.1, affine=True, track_running_stats=True)
  (6): BatchNorm2d(32, eps=1e-05, momentum=0.1, affine=True, track_running_stats=True)
  (7): BatchNorm2d(32, eps=1e-05, momentum=0.1, affine=True, track_running_stats=True)
)
x.shape
Out[23]: torch.Size([32, 32, 113, 12])
x.shape
Out[24]: torch.Size([32, 32, 113, 10])
skip.shape
Out[25]: torch.Size([32, 176, 113, 1])
s.transpose(2, 3).reshape([s.shape[0], -1, s.shape[2],1]).shape
Out[26]: torch.Size([32, 80, 113, 1])
x.shape
Out[27]: torch.Size([32, 32, 113, 10])
x.shape
Out[28]: torch.Size([32, 32, 113, 10])
…
